model_st/model_st.pt (torch, 537515 bytes, 25 tensors)

distored_img_net.0.weight f4 [32, 1, 3, 3]
000000 79 48 a4 bd 95 06 f8 bc ba 38 7e 3e 92 17 62 3e
       -0.080216356 -0.030276576 0.24826327 0.22079304
000010 bd d4 f8 3e 47 b5 f0 3e 58 2a 76 3e 24 f8 b1 bc
       0.48599806 0.47013304 0.2403959 -0.021724768
000020 ac aa 91 bd 43 29 9b 3e 3c dc d7 be 0f 32 a8 be
       -0.07112631 0.30304918 -0.42160213 -0.32850692
000030 84 aa 58 3e 74 49 f8 3c 20 f7 c8 be 38 91 91 be
       0.21158797 0.030308463 -0.3925104 -0.28431106
000040 2c e6 7b be 1b 98 ba 3e cc 73 78 be 9f 89 ea be
       -0.24599522 0.36444172 -0.24262923 -0.45808122
000050 ad 99 9a bd d0 2b 30 be 25 58 29 be 9a 95 2b bd
       -0.075488426 -0.17204213 -0.1653753 -0.041890718
000060 c9 0a 95 be f9 9c 81 bd da 47 56 be ce eb b2 be
       -0.2910979 -0.06328768 -0.20925847 -0.3494553
000070 73 f9 c6 be 53 ee eb be 16 f6 87 3e 3c 2b b3 3e
       -0.3886219 -0.46080264 0.26554936 0.34993923
000080 e2 07 91 3d 67 00 86 3c 91 db 1b 3f cf 8c 96 3d
       0.07081582 0.016357614 0.60881907 0.07351076
000090 b4 76 dc be 3c d0 d8 be 55 e5 a1 be 5d 1d 8c be
       -0.43059313 -0.4234637 -0.3162028 -0.27366152
0000a0 02 a5 43 3e fc 56 89 3e 28 46 53 3d b1 72 99 3e
       0.19105914 0.26824176 0.051580578 0.29970315
0000b0 4a aa c0 3e 25 a1 41 be 1d da 08 be 2a 9a 2d be
       0.3762992 -0.18909128 -0.13364454 -0.1695334
0000c0 50 2f e9 3d 21 f5 45 be 00 77 bc be ca 6b cf 3e
       0.11385977 -0.1933179 -0.3680954 0.40511924
0000d0 ac 8e 53 3e 0b 64 55 be a3 e4 b2 3d 80 1c bf 3e
       0.20659894 -0.20838945 0.08735015 0.3732643
0000e0 80 a2 4c 3e 6e 0e ba 3e 9b 59 87 3e 1c ed 93 3e
       0.19983864 0.36339134 0.2643555 0.28891838
0000f0 f7 30 20 be 05 dd c5 be fa c8 b8 be 35 9b 1d be
       -0.15643679 -0.38645187 -0.36090833 -0.15391238
000100 06 c9 87 3e 76 30 30 3d 9c d8 8b 3e df c5 a4 3e
       0.26520556 0.043014966 0.27313697 0.32182214
000110 27 f5 31 be 60 03 ea bd 42 6c ce 3e 48 63 2a be
       -0.17378674 -0.11426425 0.4031697 -0.16639435
000120 ff ba 0f bf de 4a 2f bf 43 bf d3 be 3b dc f9 3c
       -0.5614471 -0.68473613 -0.4135686 0.030500522
000130 31 90 07 bd c2 d7 9c be a7 77 f7 3e 0a ea f7 3d
       -0.033096496 -0.3063336 0.48333475 0.12105186
000140 30 16 a6 3d 55 9d 4c be 9c a5 24 be 02 c2 dd be
       0.08109701 -0.19981892 -0.160788 -0.4331208
000150 d5 54 59 be 6c 84 33 bd 1e aa 17 be c5 15 83 be
       -0.21223767 -0.04382746 -0.14810988 -0.25602546
000160 86 ec 87 be 7f 04 9a be 4f 6e 94 be 05 1b c7 be
       -0.2654764 -0.30081555 -0.2899041 -0.38887802
000170 ae 16 ae be e1 e3 9b be 35 5c 61 be 5c 2f 47 be
       -0.34001678 -0.30447295 -0.2200783 -0.1945166
000180 00 19 4c be fd ce 81 be a2 ff 51 3e 94 3e 97 be
       -0.19931412 -0.25353232 0.20507672 -0.2953993
000190 d3 0e 6c 3e b7 0d b3 3e df ad 73 3d cb b9 c6 be
       0.2305253 0.349714 0.05949199 -0.38813624
0001a0 a3 4e bf be b0 d3 21 3e dc e8 c1 3d e1 78 a9 3e
       -0.37364683 0.15803409 0.094682425 0.33100036
0001b0 95 b4 db 3d f9 8d 9e 3e da 03 5e 3d 2f d9 9d be
       0.10727803 0.30967692 0.054202892 -0.3082976
0001c0 e5 48 05 bf ea 2c 11 bf 8e 09 a7 be ab d2 f4 be
       -0.52064353 -0.5670916 -0.32624477 -0.47816977
0001d0 ba 06 be bd 25 a6 0a be fc bd b7 be 83 0d 6c be
       -0.09278627 -0.13539942 -0.35887134 -0.2305203
0001e0 d0 2a 15 3e 13 9d 7b be 66 26 1a bd 4b c5 60 bd
       0.14567113 -0.24571638 -0.037634276 -0.054875653
0001f0 5a 71 e4 be c3 e3 8e be b6 03 b6 be e6 75 a5 be
       -0.4461773 -0.27908143 -0.35549706 -0.32316512
000200 ac 71 b4 be d0 ee 2d 3f a9 f0 17 3f 7b ee 03 3f
       -0.35242975 0.67942524 0.59351593 0.5153577
000210 f5 ac ba 3d f4 22 a9 3e 95 ee 53 3e bf 8a 34 3e
       0.0911502 0.3303448 0.2069648 0.17631052
000220 f7 10 c9 3e 0e 95 2c 3e 81 e0 de bd 9d 97 ba 3d
       0.39270756 0.16853735 -0.108826645 0.09110949
000230 f8 56 74 be 1a a2 c9 3e a6 f5 51 3e e7 96 6b 3e
       -0.23861301 0.39381486 0.20503864 0.23006783
000240 d7 9d de be 42 c0 8f bd 7e 57 b7 3e f7 5e 8e bd
       -0.43479797 -0.07019092 0.3580894 -0.06951707
000250 34 28 9c 3e ab b6 16 3f 4a 92 da 3e ee 1a 96 3e
       0.30499423 0.5887248 0.42689735 0.2931742
000260 e0 ba 06 3f 33 5a c7 be d0 2d a5 be 15 41 aa be
       0.526289 -0.38936004 -0.32261515 -0.3325278
000270 8f 0f 86 be 94 af 74 3e 59 a6 68 be bc 7b 7d be
       -0.26183745 0.23895103 -0.22719707 -0.24754232
000280 44 db 70 be d4 16 7b be cc 18 c4 3e 4c fc 7d 3e
       -0.23521143 -0.24520427 0.3830017 0.24803275
000290 6c 1d 8e be 52 86 e9 3e cb 97 f0 3d d0 0c a3 3e
       -0.27756822 0.4561029 0.11747702 0.31845713
0002a0 62 0a 4f be ff 7e cb 3e fe 5c 2a 3e 71 f3 b2 be
       -0.20218804 0.39745328 0.16637036 -0.34951356
0002b0 d8 65 18 bf 70 29 dd be 44 96 78 be 88 4e 34 be
       -0.595304 -0.43195677 -0.24276072 -0.17608082
0002c0 4c 8f 2f be b6 ae 91 3e b1 3c d8 3d 66 eb 60 3e
       -0.17144507 0.28453606 0.10558451 0.21964797
0002d0 60 0a 94 bd f8 2b 40 3e 55 ff 4e 3e f3 46 9c be
       -0.072285414 0.18766773 0.20214589 -0.3052288
0002e0 3e 5c d7 3e e3 fc 0e 3f e8 92 b1 3d d6 84 75 3e
       0.42062563 0.55854625 0.08670598 0.23976454
0002f0 06 8e 08 be a4 98 c1 3e 0e f6 18 bd f3 9e 46 3e
       -0.13335428 0.37811768 -0.03734403 0.19396572
000300 2d 2c b7 3e 76 4a 9a 3e e3 18 d6 ba d0 51 0b 3c
       0.3577589 0.30134934 -0.0016334321 0.008503392
000310 01 b2 b9 be 8c ab ef 3d 51 b0 43 3f a7 28 23 3f
       -0.3626862 0.11702642 0.7644091 0.63733906
000320 32 e5 c1 3e 0e a8 e0 3d 8e 5b 13 be c8 00 6b be
       0.37870175 0.10969554 -0.14390394 -0.22949517
000330 44 54 10 3e 03 cb 92 bd ae 8a 08 bd f5 68 58 3e
       0.14094645 -0.07167628 -0.03333538 0.21133788
000340 44 d5 50 bd d2 14 be be a2 1a f4 bd ef 33 0b bf
       -0.050984636 -0.3712526 -0.11919142 -0.5437612
000350 e1 12 bd be 7a c9 4f 3e f2 42 6a be 2d 52 32 be
       -0.36928466 0.20291701 -0.228771 -0.1741416
000360 0a 15 73 3d c1 5d d3 3e 36 f9 39 3e 69 13 3a 3d
       0.059346236 0.41282466 0.18161473 0.045428667
000370 fe ab ac 3e 3d 42 1c be ee 29 a3 be 09 ad 2a 3e
       0.3372497 -0.15259643 -0.31867927 0.1666757
000380 f5 4a 69 bd d4 9f 96 bd a5 fd 02 bf e1 6c b2 be
       -0.05695625 -0.073547035 -0.5116828 -0.34848693
000390 1c 28 5b 3e 82 67 b5 be a1 43 86 3d 05 c4 f8 3d
       0.2140202 -0.35430533 0.06555868 0.12146763
0003a0 90 34 86 be 83 c5 7a 3d 57 99 b4 bb e7 18 a9 3e
       -0.26211977 0.061223518 -0.0055114436 0.3302681
0003b0 fe ba fa 3e 8e 4f e3 3e b3 57 73 3e 43 5e e9 3e
       0.4897079 0.44396633 0.23763923 0.45579728
0003c0 61 c8 69 be 4c 06 9e 3e ee 54 c6 3e d9 aa 98 be
       -0.22830345 0.3086418 0.3873667 -0.29817846
0003d0 a8 d1 e1 be dc 30 64 be 27 84 88 be 3a 59 dc be
       -0.44105268 -0.22284263 -0.26663324 -0.43036824
0003e0 23 d7 92 be 5b f1 f6 3d 08 27 86 3e e6 fd 9d 3e
       -0.2867976 0.12057754 0.26201653 0.30857772
0003f0 3e 6d 18 bf cc 64 cb be a1 d6 93 be 62 1e 05 3e
       -0.5954169 -0.3972534 -0.28874686 0.12999871

distored_img_net.0.bias f4 [32]
000000 79 19 67 3e ff ab 3c be 27 c0 23 3e 7d 39 f2 3d
       0.22568311 -0.18424986 0.15991269 0.11827371
000010 08 3c 0e bd a8 31 a3 3c 56 be 42 be c6 84 31 be
       -0.03472522 0.019921139 -0.1901792 -0.17335805
000020 f0 f0 b4 3d f0 c3 2d ba 55 01 34 ba ed 82 07 be
       0.08835018 -0.0006628623 -0.00068666536 -0.13233538
000030 ea e5 37 ba 34 5c f5 3d f3 70 79 3d 8c 3d 49 3e
       -0.0007015156 0.11980477 0.060898732 0.19652385
000040 aa 0c 15 3e f8 4e d4 3d 0d 3a 9a 3c db d9 c5 3d
       0.14555612 0.103666246 0.018826509 0.09660693
000050 c1 6e 39 3d 55 f6 48 bd 5c 6b 26 3d d2 5b ad 3d
       0.04527164 -0.049063046 0.04062973 0.08464779
000060 0a c5 dd bd 7b b0 2a ba 89 11 8c 3d ce 17 48 be
       -0.10828598 -0.0006511283 0.06839282 -0.19540331
000070 72 91 dd 3d ed 37 dd 3b ac ef 09 3d 0f 75 37 be
       0.10818757 0.0067510516 0.033675835 -0.17915748

distored_img_net.2.weight f4 [32, 32, 3, 3]
000000 60 eb 65 3d 59 47 26 bd 9b ae 39 bd d7 96 5d bc
       0.056132674 -0.040595386 -0.045332532 -0.013524733
000010 57 6c 16 bd a3 4d 0b bd 39 c5 41 bd fb 3c 37 bc
       -0.036724415 -0.034009587 -0.047307227 -0.0111839725
000020 47 52 fb bc ce b0 8f 3c 12 ab ad 3c 23 8c cf 3d
       -0.030678881 0.017540362 0.021199737 0.10134151
000030 25 1b 00 3d d3 50 f7 3d 9d 62 22 3e 5f 67 26 3d
       0.031275887 0.12075963 0.1585793 0.040625926
000040 cb c3 18 3e 20 35 1d bc 79 83 b9 bd 9a 73 ac bd
       0.14918439 -0.0095951855 -0.090582795 -0.08420487
000050 b4 55 ed 3c 29 8b 00 bd 8d 73 82 3a 73 e3 30 bd
       0.02897153 -0.031382713 0.000995265 -0.043185662
000060 18 c9 b9 bd 93 0f d6 3c d2 30 2e bb ee 5f 3e bc
       -0.09071559 0.026130473 -0.0026579392 -0.011619551
000070 94 38 02 bd fb 30 7e bd 0d a2 80 bd 6c 7d fb 3a
       -0.03179224 -0.06205843 -0.06280909 0.0019187159
000080 7d de d7 bc d7 4e 95 bd ea 3f 88 bc 21 e5 89 bc
       -0.026351208 -0.07290428 -0.01663204 -0.01683289
000090 24 8c 63 3d d4 0b b9 bc 8c a9 89 3c 18 d3 9f 3c
       0.05555357 -0.022588648 0.016804479 0.019509837
0000a0 22 12 fe bb e4 24 07 3e b5 f4 52 bd 11 02 02 3d
       -0.0077536264 0.13197666 -0.051502902 0.031740252
0000b0 b1 ef b0 3d 00 e2 b3 ba 3e 0f 82 3d 5c 5e 25 3d
       0.086394675 -0.001372397 0.063505635 0.04037319
0000c0 b0 15 2a 3d 27 6b 20 3d b9 5b da bc 36 1f 45 3c
       0.04152459 0.03916469 -0.026655065 0.012031367
0000d0 80 5d 3b 3d 47 5d 0f bd e8 66 42 3e 9c 34 75 3d
       0.045743465 -0.035001066 0.18984568 0.059864625
0000e0 f7 a5 a7 3c fe 6b 29 3e 87 e2 d2 3d b1 2e 1d 3d
       0.02046488 0.16545102 0.10297113 0.038374607
0000f0 8e 92 2d bc 5b 46 03 bd ab 50 ea bd 3f 30 81 3e
       -0.010594023 -0.032049518 -0.114411674 0.2523212
000100 9e 0f 69 3d 36 6e e2 3c 0e bf 31 3e cf 89 ff bc
       0.05689966 0.027640443 0.17358038 -0.031193642
000110 b3 46 2c bc 42 ab 2e 3e fd 72 7a bd 0f 9e 64 bd
       -0.010514903 0.17057517 -0.061144818 -0.0558148
000120 64 b4 0e bc fa 45 75 bd 25 58 81 bd 09 e2 e1 bd
       -0.008710001 -0.059881188 -0.0631564 -0.11029441
000130 6a db df 3a be d5 24 bc 00 66 e6 bd 85 f3 4f bd
       0.001707894 -0.010060726 -0.11249924 -0.050769348
000140 c0 15 65 3b 0c 19 90 3c b4 b8 3b bd 26 f9 a7 3d
       0.003495559 0.017590068 -0.045830444 0.08201818
000150 84 e8 33 bd c7 41 81 3b b9 a4 8d 3d 6c 0c 29 3d
       -0.043922916 0.003944609 0.06916184 0.041271612
000160 2a e2 96 3c ce cd 31 bd f3 c7 00 bc d0 5e 98 bc
       0.01841839 -0.04340916 -0.007860172 -0.018599898
000170 ff cd d4 3d c6 39 5f bd 59 bc f9 3c aa 16 bf 3d
       0.10390853 -0.054498456 0.030485319 0.09330495
000180 7f 4f 1f bc fe 9e 06 3d b2 e2 c8 3c 72 ae a6 bb
       -0.009723543 0.03286647 0.02452216 -0.0050867135
000190 db d4 86 3d 86 85 20 3d 95 b7 42 bc 56 d4 a6 3c
       0.06583568 0.039189838 -0.01188459 0.020364922
0001a0 a4 5a ad 3b 5e a5 4f bb 51 76 88 bc 8a 11 c4 3c
       0.005290346 -0.003168426 -0.01665798 0.023934145
0001b0 78 74 8d bd f1 60 13 3d 76 78 ed 3d b3 95 fe 3c
       -0.0690698 0.035981122 0.11595242 0.031077242
0001c0 6b 95 7f bc ab 8b 9d 3b ff 09 ae 3c f4 2e 93 3b
       -0.015599589 0.0048079095 0.021245 0.0044916812
0001d0 fa ee 5e bc 4a 4c 2d bd 96 ee 25 bc d6 cf 5b bd
       -0.013606781 -0.042309083 -0.010127684 -0.053665005
0001e0 9b 57 0f bd 71 c8 18 3d 0f 74 af 3c af 82 96 3c
       -0.034995656 0.03730053 0.021417646 0.018372862
0001f0 4f 7f c7 3c 16 82 f8 3c da 8a 03 bc 32 e7 d2 bc
       0.024352698 0.030335467 -0.00802871 -0.025745008
000200 b0 58 b2 bc b3 a0 30 bd ea 2b 5c bd 47 ec 9f 3c
       -0.021770805 -0.043122005 -0.053752817 0.019521846
000210 65 66 35 3d 5f 42 11 bc 80 e4 5b bc d1 e7 37 3c
       0.044287104 -0.008865922 -0.013421178 0.011224703
000220 e1 a2 46 bd 77 3e 60 bd 5a 98 a2 bc 83 4e c1 bc
       -0.048495177 -0.05474707 -0.019848038 -0.023597008
000230 6d 20 99 bd 68 ec 04 bd 7f a8 e5 3c 40 a5 d0 bc
       -0.07476888 -0.032452017 0.028034447 -0.025469422
000240 50 a1 02 bd 4d d9 35 bd c1 11 32 3c a2 78 9b 3c
       -0.03189212 -0.044396687 0.010868491 0.01897842
000250 b1 8e 84 bd b2 a6 83 bc 0e 3a 47 bd 76 1a b1 bd
       -0.06472529 -0.016070697 -0.04863935 -0.08647625
000260 37 7d 92 3d 26 45 3d bd 52 a6 3f bd a1 a0 43 3c
       0.07152789 -0.046208523 -0.046789475 0.011940152
000270 ec 77 28 bc 49 bf b4 bc 06 15 e8 bc 33 a6 fd bc
       -0.010282498 -0.022063868 -0.028330337 -0.030963039
000280 ed 7b 0d bd a4 77 2e 3c 5a e2 f9 3d f4 57 98 3c
       -0.034542013 0.010648642 0.12201376 0.018596627
000290 92 db 25 bd bf 9d 84 3d 40 b1 ec 3c 03 0b 15 bd
       -0.0404926 0.064754 0.028893113 -0.036387455
0002a0 9a 19 b1 3d ed 7c 84 3d a1 ba c6 bc ca 22 8c bd
       0.08647461 0.0646914 -0.024258913 -0.06842573
0002b0 8a c7 e8 bd 22 da d5 bb f6 42 df bd cd 81 71 bd
       -0.11366184 -0.0065262476 -0.10901444 -0.05896168
0002c0 11 e3 8d 3d 52 84 af bd e1 9f 3f 3d 85 bd cf bc
       0.06928075 -0.0857016 0.04678333 -0.025358925
0002d0 3b bf 47 3d c8 bd bf bd 6d 0e 3b bd fd 07 9a 3d
       0.048766356 -0.0936237 -0.045668054 0.07521055
0002e0 69 d5 48 bc 90 b0 c3 bc a7 74 4e 3d b7 ef c7 bc
       -0.012257912 -0.023887902 0.050404217 -0.024406297
0002f0 88 36 fd bc 16 dc 79 3d 19 0a 26 3e 78 0d 3e 3d
       -0.030909792 0.061000906 0.1621479 0.046399564
000300 91 17 63 3d 25 da e3 3d 13 3e cf 3c a9 2b 59 3d
       0.055442397 0.11125592 0.025298154 0.053020153
000310 a5 d7 19 3d 65 89 e4 3b a3 85 ab 3c ac 96 d5 3d
       0.03755917 0.0069743865 0.020937746 0.10429129
000320 d7 6a d7 bc 0b 12 c1 3d eb 4b 15 3d a8 b5 a1 bd
       -0.026296062 0.094272695 0.036449354 -0.07895976
000330 0e 66 fa 3c a2 26 8b 3d dc 8a af bd dd e1 0d bd
       0.030566242 0.06794478 -0.08571407 -0.034639228
000340 14 7f 81 3d f3 72 0f bd c3 da 03 bd 16 68 cb 3c
       0.06323066 -0.035021733 -0.03219105 0.024829905
000350 e0 17 00 3d 89 1b fa 3c cd 64 cd bb d4 06 1d bd
       0.03127277 0.030530708 -0.00626812 -0.03833659
000360 a1 a5 2a 3e fc 2c d8 bb c2 e8 5f bc 22 e3 20 3e
       0.16664745 -0.0065971594 -0.013666334 0.15711644
000370 67 6e 90 bc 3c cf 5f 3c 67 c1 16 3e 54 ab 5d bd
       -0.017630769 0.013660248 0.14722215 -0.05411847
000380 be bc b6 3b a9 df 04 bd 5e 47 55 3d 95 c5 0a 3d
       0.005576699 -0.03243986 0.052070014 0.033879835
000390 43 75 54 bd 1a 8d 0a 3e 93 f4 93 3d 03 e5 12 bc
       -0.051869642 0.13530388 0.07224383 -0.008965733
0003a0 e6 71 88 3d bd f9 9d 3d ed fc 98 3d 25 1f 30 bd
       0.066623494 0.077136494 0.07470117 -0.04299845
0003b0 77 85 4e 3c 5c 3f e9 bc f2 a4 5a bd e7 47 22 3c
       0.012605063 -0.028472595 -0.05337996 0.009904838
0003c0 dd 2b 20 bd d2 28 8d bd 55 77 a2 3c 8b 50 a2 3a
       -0.03910433 -0.068925515 0.019832293 0.0012383623
0003d0 a6 0a 0e 3b 8f 06 48 bc ef 71 8d b8 e6 2d 09 3d
       0.0021673827 -0.012208595 -6.744626e-05 0.033491038
0003e0 0e 76 02 3e fe 9c 14 bd f6 a5 0d 3d d1 b4 d9 3d
       0.12740347 -0.036282532 0.0345821 0.10630191
0003f0 e6 60 68 bd 7c 79 22 bd db 8b 90 3b 80 38 b9 bd
       -0.056733035 -0.039666638 0.0044112033 -0.0904398

distored_img_net.2.bias f4 [32]
000000 f7 42 99 bb 09 b1 82 bc 35 79 43 3c 0e 27 8b 3c
       -0.0046771723 -0.015953558 0.0119307535 0.016986396
000010 41 2e 3c 3d 41 02 7a 38 b6 ec b2 3c d1 bd c2 3c
       0.04594255 5.9606744e-05 0.021841388 0.023772152
000020 e0 3e 25 3c be a2 e1 3c 02 a1 e0 bc 4d 49 98 bd
       0.010085791 0.027543422 -0.027420525 -0.07435856
000030 10 d5 1a ba 96 b9 05 bd a3 1b fe 3b 06 b6 26 3d
       -0.00059063826 -0.03264769 0.0077547594 0.040700935
000040 29 24 9f 3c 60 5f b2 3b 51 05 50 3d 50 d1 e0 3c
       0.019426422 0.0054434985 0.05078632 0.027443558
000050 67 3e 6b bd d3 35 00 3d 1a dc 72 3c 27 d9 fd 3d
       -0.05743256 0.03130133 0.014822984 0.12394934
000060 04 82 5d bc 0c bc 6c 3d 25 c4 07 bc bb 8a 92 bb
       -0.013519768 0.057796523 -0.008286511 -0.0044721044
000070 d4 42 6b 3d c6 05 23 bc 00 4b 0e bc af 6f 0e bd
       0.05743678 -0.009950107 -0.008684874 -0.03477448

error_map_net.0.weight f4 [32, 1, 3, 3]
000000 a2 1c be bc 75 dc b9 bd cb 95 10 bd 3e a8 2a bd
       -0.023207013 -0.09075252 -0.035299104 -0.041664355
000010 3e 3b 31 3e 50 83 90 3d e5 d0 8d bc 31 9c c2 3c
       0.17307755 0.07056296 -0.017311523 0.023756118
000020 e2 c5 06 3c 30 3c 5f 3d d0 17 03 3d 6f ad 7d be
       0.00822589 0.05450076 0.03200513 -0.24773191
000030 20 d1 c8 3c 3a 61 32 3e db 0b d0 bd 5b a8 d9 3d
       0.024513781 0.17419901 -0.10158511 0.106278144
000040 ab 3c b2 be 9e aa ca bc 21 09 97 be a6 a8 a2 bd
       -0.3481191 -0.02473956 -0.29499152 -0.079423234
000050 bb a6 00 be ae 23 62 be 23 93 54 3e da b3 31 3d
       -0.12563603 -0.22083923 0.20759253 0.04338441
000060 46 3c 8f be 1f d9 55 3e ee d9 05 3d 9f 2e 7b 3e
       -0.27975672 0.20883606 0.032678537 0.24529503
000070 49 9e 6a be 1c 41 02 be 71 28 84 be 01 00 98 3e
       -0.22911943 -0.1272015 -0.25812104 0.29687503
000080 78 1c 00 be 8e 1d f5 bc ae e0 7d 3c 1d d8 8b bd
       -0.1251086 -0.02992132 0.015495462 -0.0682833
000090 46 6b 10 be a8 f6 98 3c 8d 51 b4 bd 4f 81 01 3e
       -0.14103422 0.018672302 -0.08804617 0.12646984
0000a0 2c ab 8f 3e 38 6c c2 bd 74 31 67 3e 60 ab e8 bd
       0.2806028 -0.09493297 0.22577459 -0.11360812
0000b0 80 fc 38 be 76 af 12 3d 9b 71 3b be d1 9d 00 be
       -0.18065071 0.035811864 -0.18305056 -0.12560202
0000c0 6c 9b 3b 3e ab 52 43 be c0 a1 77 3e d8 a3 9b 3d
       0.18321007 -0.19074504 0.24182796 0.0759961
0000d0 50 05 06 be 93 a1 db bc b4 9a 79 3e 21 80 4e be
       -0.13087964 -0.026810443 0.24375421 -0.20166065
0000e0 cc 70 96 3e a6 f6 1d be ff 36 8c 3e 2f 3d a6 be
       0.29382932 -0.1542612 0.2738571 -0.32468554
0000f0 73 6f 83 3d 66 ea 93 be 3f cf 22 3e 60 9e 98 3e
       0.064177416 -0.2888977 0.1589937 0.2980833
000100 0b f6 a3 be bd 1c 90 be 99 6f 7f be 5c 2e 6f 3e
       -0.32023653 -0.28146926 -0.24944915 0.23357528
000110 84 74 d5 3d a0 89 a4 bd 63 d8 89 3e d5 53 0d 3e
       0.10422614 -0.080340624 0.26922902 0.1380151
000120 06 51 69 be 28 9b 9b 3e 19 cc 80 3d 2f 53 d3 3b
       -0.22784814 0.30391812 0.062889285 0.0064491252
000130 68 a9 ce bd 32 40 e5 bc 67 a8 75 3e a7 ef 40 3e
       -0.100909054 -0.027984712 0.23990022 0.1884142
000140 c3 24 9a be ec 43 27 bd 4d a2 a5 3e 3c 7b da bd
       -0.30106172 -0.04083626 0.32350388 -0.10668036
000150 c6 e7 96 be 3d 92 db 3c 69 1f 94 3e 46 94 25 be
       -0.29473704 0.02680313 0.28930214 -0.16169843
000160 ae 54 fd 3d 5d 2b 96 be 39 1d 4e be 3c 0a 04 be
       0.12369667 -0.2932996 -0.20128335 -0.12894529
000170 0d 17 1b 3e b8 33 53 3b fd 6f bf 3d e2 8d 96 3e
       0.15145512 0.0032226872 0.09347532 0.29405123
000180 0d 21 b5 3e 25 67 09 be b6 d0 4e 3d e4 17 94 be
       0.35376778 -0.13418253 0.05049201 -0.28924477
000190 9c f3 a1 3e c3 49 97 3d 77 44 1a 3e 25 b8 61 3d
       0.31631172 0.07387116 0.1506518 0.055107255
0001a0 40 ed 98 be 33 38 a2 3e ad e8 07 3e e9 ba a1 bc
       -0.29868507 0.31683502 0.13272353 -0.019742446
0001b0 68 5b 32 3e 65 d7 62 3e 52 9e 19 3d 61 49 9c be
       0.17417681 0.22152479 0.0375045 -0.30524734
0001c0 1c 00 b0 bd b1 ae 88 bd c9 de f6 3d a7 f5 0c 3e
       -0.08593771 -0.06673945 0.12054212 0.13765584
0001d0 6e e5 92 be b0 42 4a 3e 1d 28 91 3e d9 75 74 be
       -0.28690666 0.19752002 0.28350917 -0.2387308
0001e0 49 a4 2f bd ae 8f 2b be 21 af a9 bd e9 32 09 3e
       -0.042881284 -0.16754028 -0.08285356 0.13398327
0001f0 dc 2f 87 3d b0 6a 12 be b4 1f 42 3e 4b c7 b3 be
       0.06600925 -0.1429851 0.18957406 -0.35112986
000200 01 37 0d be 9f 04 1d bc 25 19 a0 3d 4e 7a 73 be
       -0.13790514 -0.009583621 0.07817296 -0.23777124
000210 ba 4f 75 3e 11 e3 bf 3c 9e 96 7b 3e cd 86 90 be
       0.23956195 0.023423703 0.24569175 -0.28227845
000220 40 27 89 be ff 5c a9 3e 26 1f 87 3e 7f e2 cf bc
       -0.26787758 0.33078763 0.26390952 -0.025376556
000230 6d d8 b2 bd e3 a8 a5 be 45 bb f4 bd ea 92 07 be
       -0.08732686 -0.32355413 -0.11949781 -0.13239637
000240 ba 07 bf be cc ac 0d be ab ba 2a 3e 23 2b a2 be
       -0.37310582 -0.13835448 0.1667277 -0.31673536
000250 55 d9 a3 bd a4 33 88 3e 0d c1 ca bd 0a b2 3c 3e
       -0.08000437 0.266019 -0.09900103 0.18427292
000260 d3 32 1c 3e 4e 15 5a be 4f 34 ae be 63 dc 0d bd
       0.15253763 -0.2129719 -0.34024283 -0.034634005
000270 42 d1 15 3e 2b fc b7 bd 4c 41 b1 3d 2f be 81 3e
       0.14630607 -0.08983644 0.086550325 0.2534041
000280 23 34 2a be 9a 46 23 3e d2 b0 48 be 47 9a 0b be
       -0.16621451 0.15944901 -0.19598702 -0.13633071
000290 a8 37 62 3e 02 e8 93 be 4b 21 ca bd ab 2c 0b 3e
       0.22091544 -0.28887945 -0.098696314 0.13591258
0002a0 cf 38 d1 3d af 6e 87 3d 79 f8 70 bd 78 7f 44 be
       0.102159135 0.06612908 -0.058830712 -0.1918925
0002b0 cb 99 01 3e 85 e0 f7 bd 78 92 15 be 91 30 9e be
       0.12656324 -0.121033706 -0.14606655 -0.30896428
0002c0 3f a1 ce 3d a3 4b a2 3d d6 df 3f be fb ac a4 3e
       0.10089349 0.07924583 -0.1873773 0.32163224
0002d0 c5 f7 31 3d f0 22 80 3e 89 8a 51 3e 93 c7 88 3e
       0.043449182 0.25026655 0.20463003 0.26714763
0002e0 29 90 9a 3e 71 a7 a1 3e 56 f7 91 be ba 2d a1 be
       0.3018811 0.3157306 -0.28509015 -0.314802
0002f0 a6 13 80 3d ed 23 cc bd 3f 5a 0d be 6b f6 a0 3e
       0.06253748 -0.0996779 -0.13803957 0.31438002
000300 ac 1e bf bd 55 de f8 3d 20 95 6a 3d 1b 28 9f 3e
       -0.09332022 0.121517815 0.057271123 0.31085286
000310 53 a4 c7 bd 6c 06 85 be de 64 73 be c5 68 4e be
       -0.09748139 -0.25981462 -0.23768947 -0.20157154
000320 58 f5 2b 3e c3 06 9d 3e e3 87 6e be 40 71 32 be
       0.1679281 0.3066922 -0.23294024 -0.17426014
000330 75 19 a5 3e dc a5 75 3c 7b db 2f 3d 0a e5 b7 bd
       0.32245985 0.014993157 0.042933922 -0.089792326
000340 64 d3 7e bd d0 99 1f bd e9 2b 6d be ed ed a3 be
       -0.062213317 -0.038965046 -0.23161282 -0.3201746
000350 b3 a7 60 3e cd 9e 4d 3e 45 60 2f 3d 3f 25 34 3d
       0.21938972 0.20080109 0.04281642 0.043980833
000360 1f 58 1b bd 87 a2 b8 3d f6 09 8f 3e d1 2a 8f bd
       -0.037925836 0.09015375 0.27937287 -0.069905885
000370 8a 5e 70 be 89 64 22 be d2 09 af 3d 8c 98 8a 3b
       -0.23473564 -0.15858664 0.08546795 0.004229611
000380 4f 61 05 be ad fe d3 bd a0 d9 1a 3d b0 67 f6 bd
       -0.13025402 -0.1035131 0.0378052 -0.120314956
000390 4e 87 0f 3e 5c fe 9d be 60 35 1d 3e 69 df c1 be
       0.14016458 -0.30858123 0.15352392 -0.3786576
0003a0 28 a7 37 3e f7 be 9e 3d 64 47 11 3e 3b 73 66 be
       0.17934859 0.077512674 0.1418739 -0.22504894
0003b0 73 09 35 3e 26 eb 95 be 3f 27 81 3e c3 f6 25 be
       0.17679386 -0.29280967 0.25225255 -0.16207413
0003c0 db 8c 22 3e fd 9b 95 3e 45 d5 07 3d 71 45 c4 3d
       0.15874045 0.29220572 0.033162374 0.095835574
0003d0 7d aa 28 be 27 ab a6 be 4c 75 f3 bd 83 58 60 be
       -0.16471286 -0.32552454 -0.11887607 -0.21908765
0003e0 a0 b7 e2 3d f7 b8 7b be 53 02 92 bc f3 1e 39 3d
       0.1107018 -0.24582277 -0.017823374 0.04519553
0003f0 cb 91 b8 3a e5 95 ab bd 9a 62 03 3e 2d 64 a5 bd
       0.0014081536 -0.083781995 0.12830582 -0.08075748

error_map_net.0.bias f4 [32]
000000 39 f8 ca bd 14 ee a3 3e a7 aa 86 3e df 53 8c 3e
       -0.09910626 0.32017577 0.26302072 0.2740774
000010 57 47 f3 bc f1 63 b7 3d d6 a9 8a bd f7 a1 d0 bd
       -0.029697103 0.08954609 -0.06770675 -0.10187142
000020 ce cb e4 bd 9d 52 ee 3d bc ce 8d be 47 0b 76 be
       -0.11171685 0.11636851 -0.27696788 -0.2402774
000030 68 34 74 3d 86 26 75 bc 7e 32 6c 3c 83 a4 ad 3e
       0.05962029 -0.014962798 0.014416335 0.33914575
000040 0a d0 c2 3d cf 16 d6 3d 30 60 87 3e 68 bf ab 3e
       0.095123366 0.10453569 0.26440573 0.3354447
000050 80 a3 52 be 38 da d4 bd b2 52 6b bc 02 e9 76 3e
       -0.20570183 -0.103931844 -0.014362978 0.24112323
000060 bd 0f 36 3e 46 40 49 3e 10 dc 68 be a8 e8 a9 3e
       0.17779441 0.19653425 -0.22740197 0.33185315
000070 67 d0 3a 3e 66 a2 70 3e 29 9c 69 be 56 a7 09 3e
       0.18243562 0.2349945 -0.22813477 0.1344274

error_map_net.2.weight f4 [32, 32, 3, 3]
000000 b4 77 fc bc 23 9d 9e bd 2c 66 60 3b 18 d0 f9 bd
       -0.030818798 -0.07744815 0.0034240587 -0.12197894
000010 09 52 ad bd c8 2a 85 bd 71 84 a8 3c 01 4c 92 bd
       -0.084629126 -0.065023005 0.020570965 -0.07143403
000020 45 13 f7 3b 82 b8 91 3d 8c ad 8f 3c 82 f0 0d bd
       0.007540139 0.0711527 0.017538808 -0.034653194
000030 c0 c5 9e 3d 84 12 8d 3d 7c 33 eb 3c f9 28 a6 3d
       0.077525616 0.06888297 0.028711073 0.08113284
000040 17 24 64 3c 76 c6 48 3d d7 15 aa 3d 4a f0 94 bb
       0.01392462 0.049017392 0.08304947 -0.0045452463
000050 ee 65 bb 3d 12 45 04 3d c3 f2 23 3d 28 73 98 3c
       0.09150301 0.032292433 0.040026437 0.018609598
000060 38 dd 19 bc 14 06 ab 3c 7d 82 22 3d ac 5a de 3d
       -0.009391122 0.020876922 0.039675225 0.10857138
000070 6e 3a e9 3c c9 60 c0 bb 2d 5e 1a 3d 1a f8 c6 3d
       0.028470244 -0.0058709127 0.03768747 0.0971529
000080 78 50 82 3d 51 04 c7 3d b9 b8 11 bb cf be 88 bb
       0.063630044 0.0971762 -0.0022235347 -0.004173137
000090 d2 47 02 bd 8f 60 80 bd 8b ff 35 bd 07 10 a8 3d
       -0.031806774 -0.06268417 -0.044433158 0.08206182
0000a0 32 29 08 3d 50 0b ac 3c c4 d3 a4 bc 20 09 a0 bd
       0.033242412 0.021001488 -0.020120509 -0.078142405
0000b0 65 13 92 3a 9b b4 5f bd 81 14 0c 3c 09 4d b3 bd
       0.0011144696 -0.0546156 0.00854981 -0.08754928
0000c0 dd 0a bc 3d 96 19 f1 3d 63 be 02 bc 31 18 45 bd
       0.091817595 0.11772458 -0.007979962 -0.048118774
0000d0 09 51 89 3d 59 38 3f bd d8 a9 24 bd 51 41 de bc
       0.06704909 -0.046684597 -0.040201038 -0.027130755
0000e0 96 05 ec 3c b8 3b 06 be 3d 00 9f bd 82 63 f6 bd
       0.028811257 -0.13108718 -0.07763717 -0.12030698
0000f0 d9 34 36 3d a3 14 4d bd aa 9c 99 3c ad fa 93 3c
       0.044483993 -0.05006851 0.018751461 0.018063867
000100 8d ec 8c bc 69 34 c4 bb 25 4a d6 bd 6f 0e 86 bd
       -0.01720264 -0.005987693 -0.10463361 -0.06545722
000110 51 92 8f bc c4 42 83 3c 3e 1a be bd e2 08 af 3c
       -0.017525824 0.016023047 -0.09282349 0.02136654
000120 36 75 03 bd 9f 19 ad bc 7d 48 06 3d e8 d4 8e bd
       -0.032094203 -0.021130381 0.032783974 -0.069742024
000130 2a 00 b3 bd 75 73 47 bd 70 db fb bb 77 1a bb 3c
       -0.08740266 -0.048694093 -0.007686071 0.022839768
000140 b6 27 05 3d 47 f0 82 bc 19 c0 b0 3b 42 a0 81 bc
       0.032508574 -0.015983714 0.0053939936 -0.015823487
000150 92 47 c1 3c 69 28 e0 3c e4 11 85 3d c4 bc 3f bd
       0.023593698 0.027363019 0.06497553 -0.04681088
000160 7a e0 37 bd 0e 6a 6f 3d e9 cc 04 be 28 95 ce bd
       -0.044891812 0.05845075 -0.12968792 -0.10087043
000170 8a d0 31 bd c0 5e bb bd fb 7a 4b 3c 67 d9 12 bd
       -0.04341177 -0.091489315 0.012419458 -0.035851862
000180 42 9c 9e bd 04 ce da bd 19 5c cc bd ad a6 00 3c
       -0.077446476 -0.106838256 -0.09978504 0.007852239
000190 75 e9 5b 3c e2 79 88 bc 0b 9a b2 bc 15 14 eb bd
       0.01342236 -0.01665968 -0.021801969 -0.1147844
0001a0 55 7d 08 be 6e fe 4c bc 46 50 2b bd 07 d1 c7 3c
       -0.1332906 -0.012511833 -0.0418246 0.024391664
0001b0 53 77 a4 3d c3 ec 41 3d b7 cf 9a 3d b0 87 91 3c
       0.08030572 0.047344934 0.0755915 0.017764896
0001c0 3b 52 6a bd ab b2 13 bb c6 85 a5 3b 99 b7 06 bd
       -0.057207327 -0.0022536914 0.0050513474 -0.032889936
0001d0 86 6a a4 3d 0e b5 6f 3d 88 bb 97 3d d7 e6 23 ba
       0.0802813 0.058522277 0.074088156 -0.00062523544
0001e0 d4 03 84 3d 65 d2 df bd 08 f7 d3 bc fc 8e a4 3d
       0.06446043 -0.109288014 -0.02587463 0.080350846
0001f0 a0 ba cb 3c e5 99 d2 bc 68 7b d5 3d 9f e1 48 bc
       0.024869263 -0.025708148 0.104239285 -0.0122608235
000200 8d 93 a2 3d f8 cd 18 bd ff 65 33 bd 8e 89 6b bc
       0.07938299 -0.037305802 -0.043798443 -0.014376057
000210 39 24 4f 3c c9 2d ff bc dc e3 93 3c 9a d6 87 3c
       0.0126429135 -0.031149762 0.018052988 0.016581822
000220 11 5b 0d 3d 7f b7 9e 3a 89 21 00 3e 5b dd f2 3d
       0.034510676 0.001210913 0.12512793 0.118586265
000230 81 04 02 3e 53 d5 1d 3d 94 05 a6 bc f2 6d 0a 3d
       0.1269703 0.03853352 -0.020266332 0.03379626
000240 1e b8 00 3e fc e5 1c 3d 9c f4 44 3e b3 cb c7 3d
       0.12570235 0.038305268 0.19233936 0.097556494
000250 2a 0a ad bb 1a 21 96 3b 4d 05 fd 3d f1 68 7c 3b
       -0.0052807527 0.0045815827 0.12354527 0.0038514698
000260 0a bc ec 3d 95 45 fd bb f6 6b 9b bc f5 40 4b bb
       0.11559303 -0.007729242 -0.018972378 -0.003101406
000270 af 69 f3 3d ec 85 98 3d 94 fb bf 3c 7b d8 3f bc
       0.11885392 0.074474186 0.023435391 -0.011709328
000280 ca bb ef bc d4 7a 39 3c 7b d8 b1 3c 30 4b 92 3d
       -0.02926435 0.011320788 0.021709671 0.07143247
000290 ce b4 08 3e 6a da d7 3d c1 80 2f 3d c7 36 3b 3d
       0.13350222 0.10539706 0.0428474 0.045706537
0002a0 b8 62 da 3d 7c c6 8a 3d 42 67 20 3d ae 7b af 3d
       0.1066336 0.06776139 0.039160974 0.08568512
0002b0 81 55 ee 3d 60 9c c8 3d b5 90 e2 3c 21 da ae 3d
       0.11637402 0.09795451 0.027656892 0.085376985
0002c0 e6 7d 53 3c 46 e7 3d 3d 41 b4 3e 3c 97 95 3f 3d
       0.0129084345 0.046363138 0.011639656 0.04677352
0002d0 a8 a5 4d bd 23 7d 87 bd a5 db 10 bd ae 16 4e bd
       -0.05020681 -0.06615665 -0.03536572 -0.050314598
0002e0 08 18 01 bd 68 a6 3c bc 40 85 9d 3c d6 7b 50 bc
       -0.03151706 -0.011514284 0.019228578 -0.012724837
0002f0 c9 7a 29 bc e6 cc db 3c 84 a8 81 bd 73 6c e2 3b
       -0.010344216 0.026831102 -0.0633097 0.006909901
000300 0b 04 eb 3b 74 88 1a bd f5 c5 ad bc de 8e 9e 3c
       0.007172113 -0.037727788 -0.021212557 0.019355234
000310 02 57 d3 bd fd 30 96 3c c9 db 80 3d 47 3f a9 3c
       -0.1031933 0.018333906 0.06291921 0.020660056
000320 0d 5e 02 3d 9d 50 56 bd 2f 6d 95 3c 32 12 7d bd
       0.031827975 -0.052322973 0.01824054 -0.06178493
000330 19 93 fc bc c3 a5 3b bc 30 d2 2c bc b2 9c a8 3d
       -0.03083186 -0.011453095 -0.0105481595 0.08233012
000340 90 dd f0 3b 5b 1e e9 3c 39 d2 2c 3d 1d 49 32 3c
       0.007350631 0.028456857 0.04219267 0.010881689
000350 59 3e 5e 3c b8 6c 75 3d 5e 71 b2 3d 5a 20 7c 3d
       0.0135646695 0.059918135 0.08713029 0.06155429
000360 d7 1f fd 3d d8 b8 22 3d 93 74 be 3d 57 0b 40 3d
       0.123595886 0.039727062 0.092995785 0.046885815
000370 ab 9f 68 bc a2 c0 8f bc 1f 5d 80 3d 27 9d b4 3d
       -0.014198224 -0.01754791 0.062677614 0.08819037
000380 7d 74 a2 3d 30 de da 3c e1 c2 9c 3d 78 3a 51 bd
       0.079323746 0.026717275 0.07654358 -0.05108115
000390 e0 00 f8 bb 94 c7 a6 bc db df 21 bd f6 79 e9 bc
       -0.0075684637 -0.020358838 -0.039520126 -0.028500538
0003a0 f8 d8 bf bb cd 52 05 3d 92 95 65 3c 1f 64 9e bc
       -0.005854722 0.032549668 0.014012711 -0.01933485
0003b0 c4 a0 53 bc 3b 15 0a be 97 b1 f7 bd af 6c 34 be
       -0.0129167475 -0.13484661 -0.120944194 -0.17619585
0003c0 06 5e 67 bc 2f fa 78 bd 73 7c 8f bd fa d1 9e 3d
       -0.014121538 -0.06078547 -0.07006159 0.077548936
0003d0 fb 77 08 3d 3c 5d 6e 3d 4c 98 e5 3d 5a e6 ca 3d
       0.033317547 0.058194384 0.11210689 0.09907217
0003e0 4b 85 11 3e f2 1b d2 3d 6f 99 fa 3d 0c 18 16 3e
       0.14211003 0.102592364 0.122362964 0.1465761
0003f0 af e4 99 3d 84 e1 e1 3d fd 08 19 3d 34 43 9b bc
       0.07514321 0.11029342 0.037362088 -0.018952943

error_map_net.2.bias f4 [32]
000000 b1 64 52 3c 99 73 80 bd ff ee 21 3d 65 94 b6 3c
       0.0128413895 -0.062720485 0.039534565 0.022287557
000010 89 a0 28 3d c7 3f f5 3b 41 3e dc bc dc 20 7d bc
       0.041168723 0.0074844095 -0.026885154 -0.015449729
000020 d5 78 de bc 2e c2 9d bd 58 59 a9 bd cb 2a 8d 39
       -0.027157227 -0.077030525 -0.08268994 0.000269255
000030 14 69 2b 3c f6 f3 9c bc 6f a1 48 3d 08 a0 4c 3b
       0.010462064 -0.019159298 0.04898208 0.0031223316
000040 71 79 86 3c 7d d8 a9 bd 85 15 43 bd 1b d0 89 3c
       0.01641533 -0.08293245 -0.047627944 0.016822865
000050 d6 53 85 bd 2c 8a 11 3d 99 84 8b bc 6b 1e e1 bc
       -0.06510131 0.03553216 -0.017031 -0.027480325
000060 3d 06 da 3b 43 10 55 bc 4c 2f b3 bc 8c f0 fd bc
       0.0066535757 -0.013004365 -0.021873139 -0.03099849
000070 58 c1 87 3d 4a 42 7c 3d ef 36 b3 bd 16 84 49 bd
       0.06628674 0.061586656 -0.08750712 -0.049198233

conv3.channelattention.fc1.weight f4 [8, 64, 1, 1]
000000 67 80 87 bd 24 88 e1 3d 37 96 3c 3e 4c 9d 08 bd
       -0.06616288 0.11012295 0.18416677 -0.033353135
000010 a4 b3 f5 3d 27 0e 02 bd 4b 85 13 3e e9 80 c9 3d
       0.11997154 -0.031751778 0.14406316 0.09839041
000020 69 1a a3 3d 8d d6 08 3e 82 b1 7c bd 4f a7 a2 bc
       0.07964022 0.13363095 -0.061692722 -0.01985517
000030 7d 48 4c be e3 ab 3a bd 3a 73 a6 3d 66 51 8e bd
       -0.19949527 -0.04557408 0.081274465 -0.06949119
000040 c1 85 ea 3d 5d 27 01 3c b7 b4 0d be 4d c3 28 3d
       0.11451293 0.00788292 -0.13838468 0.04120188
000050 14 c3 89 bc 23 f6 bf bb d7 8c 95 3c 35 60 7d bc
       -0.016816653 -0.005858199 0.018255634 -0.015464832
000060 81 2b 34 be 4a da 64 bd f9 e8 8e 3d 5a bc b7 3d
       -0.1759472 -0.05587224 0.0697803 0.08971472
000070 c7 37 97 3c 32 c5 21 3e 6b 39 56 3d bb 2e 5f 3b
       0.018459214 0.1579788 0.05230085 0.0034054953
000080 0c a4 0c 3e b8 eb 6d 3d 85 a9 a1 3d f3 75 11 bd
       0.13734454 0.058086127 0.078936614 -0.035512876
000090 7c 24 3a 3e 21 22 10 3e 2a 2c 60 3d 3e 78 88 3e
       0.1817798 0.14075519 0.054729618 0.26654238
0000a0 28 8d 88 3b d3 4c ea 3d 9a 3b 34 3e d9 2a 85 3d
       0.0041672178 0.11440434 0.17600861 0.06502313
0000b0 cb 6b 04 3e 0d d4 85 3e b8 7f 76 3e 5b 0e 7d 3d
       0.12931745 0.26138344 0.24072158 0.06178127
0000c0 82 64 dc 3e 54 4d 87 3e 6b bf 55 3e 04 3a 50 be
       0.4304543 0.26426184 0.20873801 -0.20334631
0000d0 9a 0d 10 3e 18 ef 10 3e 5b 39 8a 3d 27 0b c1 3c
       0.14067689 0.14153707 0.06749221 0.023564888
0000e0 0b a6 60 bc 1c 21 9b 3d 31 e7 fc 3d ef c9 37 3e
       -0.013711463 0.075746745 0.12348784 0.17948125
0000f0 78 98 54 3e 09 80 26 3e 54 4e eb 3d c4 2e 1e bd
       0.20761287 0.16259779 0.11489549 -0.038618818
000100 d5 72 3f be 9e b3 23 bd cb 04 8c bd a6 39 de bd
       -0.18696149 -0.03996622 -0.06836852 -0.10850839
000110 56 27 2a 3d f5 12 28 be 5a 5b f1 bd ab f2 05 3e
       0.04154142 -0.16413482 -0.11785002 0.13080852
000120 b0 96 10 3e 16 e1 f3 3d d9 ce 84 be 41 70 08 be
       0.14119983 0.11908166 -0.25939062 -0.13324071
000130 a5 d8 85 be 46 49 0d be b5 8d 1a 3e 32 83 3e be
       -0.2614185 -0.13797483 0.1509312 -0.18604735
000140 9d 9f 1c 3d 69 8b c2 bc 24 71 8e be e7 79 17 be
       0.038238157 -0.023748117 -0.27820694 -0.14792596
000150 92 c5 42 3e c5 a9 0d 3e 59 0e 49 3d ed 26 2a 3e
       0.1902068 0.13834293 0.04908595 0.16616412
000160 e7 8b 38 be 29 8e 08 be 75 e2 97 bd da e9 c8 3b
       -0.18022119 -0.1333548 -0.0741624 0.006131393
000170 74 52 f1 3d 2e e1 8a bc bb 55 15 3e 8d 96 d9 3d
       0.11783305 -0.016953077 0.14583485 0.106244184
000180 80 d0 93 3e 34 20 31 be 45 5b 34 3e a1 a8 40 3d
       0.2887001 -0.17297441 0.17612942 0.047035817
000190 7e 00 87 3e ee d0 87 3e d8 b4 c3 3d 54 17 cd 3d
       0.26367563 0.26526588 0.095559776 0.10014215
0001a0 52 a9 70 3d e8 e5 31 3e 82 79 32 3e 3c d8 63 be
       0.058755226 0.17372859 0.17429164 -0.22250456
0001b0 bf 47 50 3e 8b f1 0a 3e 6f e8 ab 3e f1 35 bd 3e
       0.20339869 0.13568704 0.3357577 0.36955217
0001c0 dc f4 a5 bd 2e 66 74 3e 14 d9 c2 3c b7 3f 87 be
       -0.08103344 0.23867103 0.023785152 -0.26415798
0001d0 b9 51 39 3c 87 df ab 3e 2d 8c a1 3e 5a 36 0e 3e
       0.011310988 0.33568975 0.31552258 0.13887921
0001e0 97 87 3b 3e cf 49 9a 3c eb e6 82 3d 41 af 7f 3d
       0.18313442 0.018834023 0.063917 0.062422995
0001f0 c4 4c ae 3e 8e f0 2a 3e 83 d7 0f 3e 0f f8 1b 3e
       0.34042943 0.16693327 0.14047055 0.15231346
000200 4b 84 b8 bc ed 3d 9d bb 96 32 2d 3e a5 42 23 3e
       -0.02252402 -0.004798642 0.16913828 0.15943392
000210 5b e4 3a 3d 63 d9 ce bd 69 57 0e 3e 4a 84 5f bd
       0.045627933 -0.10100057 0.13900532 -0.05456952
000220 13 d9 21 bc 1b 3b 70 bd 87 f1 1f be 8e f2 a8 bb
       -0.009878415 -0.058650117 -0.15619479 -0.005155868
000230 b9 44 24 be 0b f4 04 3d 76 73 65 3d 94 bc c0 bd
       -0.1604184 0.0324593 0.056018315 -0.094109684
000240 7d 84 12 3e ac 5a 93 bc d4 bb d3 bd e2 e0 c1 3d
       0.14308353 -0.017987572 -0.1033856 0.09466721
000250 71 af 2e 3e 52 a4 d4 bc 5d 0d 45 bd ca 19 08 3e
       0.17059113 -0.02595726 -0.048108447 0.13291088
000260 de cb 6c be 0e 9b ef bd 0c 40 6b 3b c8 49 e0 3d
       -0.23124644 -0.11699496 0.003589633 0.10951573
000270 70 ef 83 bd 0e 56 4a 3e ef 0d 14 3e 54 17 8d 3c
       -0.064421535 0.1975939 0.1445844 0.017223038
000280 f3 92 b9 3d 85 42 b4 3d 58 e4 51 3d f5 3f 06 3e
       0.090612315 0.0880175 0.051243156 0.13110335
000290 0c ad 55 3e c9 09 38 3e 15 21 19 3e 95 74 1f 3e
       0.20866793 0.17972483 0.14954026 0.15571816
0002a0 4a 77 27 bd 9b e6 92 3c c0 87 25 3e f5 20 fb bd
       -0.040885247 0.017932227 0.16165066 -0.122621454
0002b0 f6 9e 73 3e e2 47 3a 3e b7 d6 84 3e ab 1c 63 3e
       0.23791108 0.18191484 0.25945064 0.22178905
0002c0 b2 c2 f7 3e b6 53 54 3d 3f ff 79 3e b5 82 62 bd
       0.48390728 0.051837645 0.24413775 -0.055300433
0002d0 88 ed 8a 3e e9 e7 99 3e d5 99 cc 3d a3 2b 13 3e
       0.27134347 0.30059746 0.09990279 0.14372115
0002e0 4a db f5 3b 3e d9 11 bd 54 71 2e bd 57 d0 4d 3d
       0.007502948 -0.03560757 -0.042588547 0.050247516
0002f0 81 9c 3a 3e c7 3e 86 3e 66 8a 81 3e 91 73 b1 3d
       0.18223764 0.2621977 0.25300902 0.08664621
000300 b8 0c bb bd 26 5f cf bd 00 c9 d1 3d 66 a5 dd bd
       -0.09133285 -0.1012557 0.10243416 -0.10822563
000310 2f d2 93 3d 24 75 07 be e0 02 34 3d 15 0e 86 bd
       0.07217824 -0.1322828 0.043948054 -0.06545655
000320 87 ee 9e bd f3 41 8a 3d 1e fa 6c bd 3b bc 80 bd
       -0.07760339 0.0675086 -0.057855718 -0.06285902
000330 7e 19 f8 3d 7f 05 e1 3b 22 df 66 bc e1 16 28 3d
       0.12114237 0.0068671103 -0.014091285 0.041037444
000340 4a a1 e3 3d 97 37 8d bd b2 4f 7c bd e6 d1 c1 3d
       0.11114748 -0.068953685 -0.06159944 0.09463863
000350 53 13 86 bd ab 25 cf bc 7b 67 bd 3c c3 3f a2 bc
       -0.065466546 -0.025286516 0.023120632 -0.019805795
000360 71 81 a6 bd 6f 81 38 3d fe b2 11 bd 9a e6 cf bd
       -0.08130158 0.045045312 -0.03557109 -0.10151406
000370 5b bb 0c bd 8c ab 5f 3d 9c 85 bc 3d 6f 49 26 bd
       -0.034358364 0.05460696 0.092051715 -0.040597375
000380 93 4a bc bc e0 a4 c2 3b 3d 75 b9 3c ef cd 9b bd
       -0.022984779 0.005940065 0.022638911 -0.07607638
000390 52 a2 4a bc db 17 f3 bd 9e e9 13 3d 46 c6 0c 3d
       -0.012367802 -0.118697844 0.036111467 0.034368776
0003a0 a4 2e 15 3d 31 42 a7 bd de ec ae bc fa a4 52 3c
       0.036421433 -0.08166922 -0.021353181 0.012856716
0003b0 8b 92 0a be 95 a8 f4 bb dd d3 1a 3b 0b 20 b0 3d
       -0.13532464 -0.0074663856 0.0023624816 0.08599862
0003c0 9a ff ad 3d 9b e7 4c bd f1 a0 9c bd 98 c9 d2 bd
       0.08496018 -0.050025564 -0.07647885 -0.10292357
0003d0 c4 e2 24 bd 97 70 86 3c 83 3c 95 bd a6 f7 8f bd
       -0.040255323 0.016411109 -0.07286932 -0.07029657
0003e0 a8 82 07 be 3f de 8b bc 1b a4 b6 3d 6e 5c 33 3d
       -0.13233435 -0.017073749 0.089180194 0.04378932
0003f0 d2 42 e7 bd 63 ed 6d 3b a9 e3 a3 3d 32 da 7a bd
       -0.11292042 0.0036304824 0.08002407 -0.061243244

conv3.channelattention.fc2.weight f4 [64, 8, 1, 1]
000000 0d 9f c2 bd 7c 26 82 be 24 cf 24 3e 52 1c aa 3e
       -0.09502993 -0.25419986 0.16094643 0.33224732
000010 e8 9b 76 3e 94 bd 03 3e 58 f1 f7 bb 4a c4 8f 3e
       0.24082911 0.12865287 -0.007566612 0.28079444
000020 90 b0 84 be a4 5a 29 bc 98 32 d2 bd 6c 3e ae 3e
       -0.25915956 -0.010336552 -0.10263556 0.34032
000030 d7 ad ae 3e 99 30 01 3e 23 6e c9 be b7 51 af 3e
       0.34117004 0.12616195 -0.3934184 0.3424203
000040 ac 86 8b 3e 7b ed 87 be 3e eb 4e be 18 9f 7e 3e
       0.27251184 -0.2654837 -0.20206925 0.24865377
000050 f1 f5 f0 39 6a fa ba 3c cc d7 d0 bd 8d 3f 8c be
       0.00045959608 0.022824485 -0.1019741 -0.27392235
000060 21 0b 5f 3e b4 54 12 bd 1f 98 55 be 76 9a 9b be
       0.21781589 -0.03572531 -0.20858811 -0.30391282
000070 1b 1e aa 3d 89 b8 0c 3e 4f d8 2a 3e 7e ff 77 3e
       0.083065234 0.1374227 0.16684078 0.24218556
000080 3d ea 3a be c2 a6 96 3e 5a a0 6c 3d 92 1b c9 bd
       -0.18253417 0.294241 0.05777011 -0.09819712
000090 37 84 80 3e 62 b9 97 3d ef 0f 29 be ac d0 49 3c
       0.25100872 0.07408406 -0.16509984 0.012317818
0000a0 98 f7 17 3c 79 77 1a 3e 6b 90 ff bd 6a cb 87 3e
       0.00927534 0.15084638 -0.124787174 0.2652238
0000b0 c1 90 7b be db 14 32 bd 91 47 79 3d fd 77 42 3e
       -0.24566938 -0.04347692 0.060859267 0.18991084
0000c0 2f a6 c8 3b 50 30 3a 3e 0a cb 98 bc 9f 1d a4 3d
       0.0061233263 0.18182492 -0.018651504 0.08013462
0000d0 9b b2 20 3e de 33 bb 3e 4b b0 e7 3e 7e 94 71 bc
       0.15693133 0.3656301 0.45251688 -0.014744876
0000e0 10 04 47 3e 6b 3f c5 3e c7 56 0c 3e 55 82 57 be
       0.19435143 0.38524947 0.13704978 -0.21045811
0000f0 ac b7 89 3e d1 f9 97 3e ed bb 44 3d 04 f6 bd bc
       0.26897943 0.29682782 0.048030782 -0.023188598
000100 09 4a 81 be 58 73 75 3e 63 d7 ec 3d da 95 c3 3d
       -0.25251797 0.23969781 0.11564519 0.09550066
000110 48 dc 7d be f3 19 68 3e ee d7 34 3d 28 9e 4c 3e
       -0.24791062 0.22666149 0.04415124 0.19982207
000120 19 b0 41 3e 2a 8d 5d 3e c4 30 f6 3d c2 b4 93 be
       0.18914832 0.21635881 0.1202102 -0.28848845
000130 42 ad c3 3d 7e cd ba be 9e bb b5 be 1e 94 e3 be
       0.09554531 -0.36484903 -0.35494703 -0.44448942
000140 a3 0c 83 3e bc 13 91 be 0d f8 19 be cf 5a 57 3c
       0.2559558 -0.2833537 -0.1503603 0.013144209
000150 72 b9 2a bd c6 91 52 3d f1 25 a1 be 12 3e 6f 3e
       -0.04168076 0.05140855 -0.3147426 0.23363522
000160 86 bc 39 3d 93 19 42 3e 8f 39 f9 3d a1 c3 ae be
       0.045345806 0.18955068 0.121691816 -0.34133628
000170 a3 a9 92 3e 9b 4d 3a 3e e5 e3 73 3e bf 85 66 3e
       0.28645048 0.18193667 0.23817404 0.22511958
000180 e5 90 55 be 0b d2 b0 bd 15 5e 45 3e 77 81 66 be
       -0.20856054 -0.086338125 0.1927417 -0.22510324
000190 9f db 10 be 52 9b 3f be 02 82 89 3d e6 5b 52 be
       -0.14146279 -0.18711594 0.0671425 -0.20542869
0001a0 dd 10 bd 3e b9 8a 9e 3d 40 59 86 3e ff ef b1 3e
       0.36926928 0.07741303 0.26239967 0.34753415
0001b0 90 50 a3 3a 75 d0 7a 3d 0e b3 ee 3d a2 f7 bb be
       0.0012459923 0.061233956 0.11655246 -0.36712366
0001c0 bf ba 29 be 16 f9 fb bc 33 da 76 be 61 cf 90 be
       -0.16575144 -0.030758422 -0.24106674 -0.28283218
0001d0 c8 a5 83 3d 54 16 06 be ca a2 1f 3d 1e d5 bc bd
       0.06428105 -0.13094455 0.038973607 -0.092203364
0001e0 79 0c 01 3e 5d 48 6d 3d d4 ff a0 be 25 4f 34 bd
       0.12602414 0.05793034 -0.3144518 -0.04402079
0001f0 7b 11 64 be 5e 3f ab 3e 9a 4c 97 be d5 66 de bc
       -0.22272293 0.33446783 -0.2955063 -0.027148644
000200 46 1a 02 3e d6 35 5d 3d 79 c4 f4 bd 19 b4 07 3e
       0.12705335 0.05400642 -0.11951537 0.13252296
000210 fb c0 40 3e 1d 55 ed bd bf 51 46 be 0c 01 8d 3e
       0.18823616 -0.115885 -0.19367121 0.2753986
000220 17 2f cd 3e 36 88 58 be ae 4d 90 3e 6e bc 0c be
       0.4007499 -0.2114571 0.28184265 -0.13743755
000230 bb 15 14 bc 9e 62 85 3e 8e 6a d8 3d 89 d2 45 3e
       -0.009038384 0.260518 0.10567199 0.19318594
000240 9c cd cc bd 7b 8c c9 bd bc cf 51 3e 21 ce 51 3e
       -0.100001544 -0.09841248 0.204894 0.20488788
000250 5b 73 87 3e 88 93 d5 3d 19 ba 72 3e 80 97 99 be
       0.26455197 0.1042853 0.23703803 -0.29998398
000260 c8 58 c5 be 55 64 b1 be 9a 8a 56 be ef d2 a9 be
       -0.38544297 -0.3464686 -0.2095131 -0.33168742
000270 b7 9d 3e bd 1e aa 85 be 45 4d 87 bd f6 1a 11 3e
       -0.046537127 -0.26106352 -0.06606535 0.14170441
000280 bb 8d ac be 18 91 5b be a1 ff 04 be 7f f3 6a 3e
       -0.33701882 -0.21442068 -0.1298814 0.22944449
000290 a1 c1 3b be 3b 16 e8 3e 3d a8 36 be 4a e8 b7 3e
       -0.18335582 0.4532946 -0.17837615 0.3591941
0002a0 bd 91 25 3c 46 9c b1 bd 8b 75 ac bd 33 e9 a1 be
       0.0101055475 -0.08672385 -0.08420857 -0.3162323
0002b0 4b c4 67 3d cd aa ea 3d d8 90 66 3e c1 a5 dd be
       0.056583684 0.11458359 0.22516191 -0.43290523
0002c0 2b 16 2e be ef 78 b3 be 96 d5 e3 be 7a ee 55 3e
       -0.17000644 -0.35053203 -0.4449889 0.20891753
0002d0 87 f3 22 be 3f 27 cb be 19 ea 42 3d de a6 07 bf
       -0.15913211 -0.3967838 0.047586534 -0.52988994
0002e0 05 c9 0b be 1e 89 a4 3e e9 ca 99 3e 6e 5c e8 bb
       -0.13650902 0.32135862 0.3003762 -0.0070910966
0002f0 2e 18 aa be 0c 16 1f bd 26 ae 1b be 28 2f 4a be
       -0.33221573 -0.038839385 -0.15203151 -0.19744551
000300 62 a0 e1 3d 29 15 1d 3d 9e b2 05 bf 0b b5 59 3d
       0.11016919 0.038350258 -0.52225673 0.05315117
000310 93 d9 db 3d 5b f3 63 bd a6 76 b8 bb 05 79 ec 3d
       0.10734858 -0.055652004 -0.0056293784 0.1154652
000320 09 44 15 3d 54 c3 8a bd a3 64 45 be 2e d9 8b be
       0.036441837 -0.06775537 -0.19276671 -0.27314132
000330 21 65 8a 3e 16 be ca 3e 11 4b 6e 3e a8 7d 66 3e
       0.2703028 0.3959815 0.23270823 0.22508872
000340 ba c2 81 bb 62 fc 9f be f3 7a c2 3e 77 a5 27 3e
       -0.003959981 -0.3124724 0.37984428 0.16371714
000350 b1 9b 2c be e2 e8 4b 3e 42 df 7d 3e e5 4a 05 3e
       -0.16856267 0.19913056 0.24792197 0.13016851
000360 a3 ad 02 3e 55 14 ad 3e c7 69 26 bd 5d 18 5e 3e
       0.1276155 0.33804575 -0.04062822 0.21688981
000370 85 16 4b be 6c c4 7c 3e ef 48 9e 3c 4d 7c 92 3c
       -0.1983281 0.24684304 0.019321887 0.017881537
000380 08 77 b6 3d c5 d4 93 3d 4d 97 b5 3e 68 58 04 bd
       0.08909422 0.07218317 0.35466996 -0.032310873
000390 c7 32 41 3d 23 62 27 bd 1f 52 90 be d8 4f e3 bd
       0.047167566 -0.040865075 -0.28187653 -0.11099213
0003a0 a7 05 a1 3e 6e 89 10 be a1 2a 9a be e1 5f b9 3c
       0.31449625 -0.14114925 -0.30110648 0.022628726
0003b0 c3 44 03 be 93 2c b7 bc 25 80 05 be 0a 65 12 3e
       -0.128192 -0.022360122 -0.13037165 0.14296356
0003c0 85 43 0b be 4c de c7 3e 06 2f c2 3e b2 e8 bd bd
       -0.13599975 0.39036787 0.379265 -0.09272899
0003d0 1e 43 b1 3e ea 0e 42 be 0c 2e 48 3e 5a dc 2e be
       0.3462152 -0.18951002 0.19548815 -0.17076245
0003e0 ee 0d 0a be 2b 53 87 3e 52 52 3c 3e 6e c4 a0 be
       -0.13481876 0.2643064 0.18390778 -0.31399864
0003f0 4d 1e 20 3d e0 b5 55 be 53 16 b9 3e 3b 19 ce bd
       0.039091397 -0.20870161 0.36149845 -0.10063406

conv3.spatialattention.conv1.weight f4 [1, 2, 7, 7]
000000 76 06 f7 bc f8 31 1d 3d ab 0f 85 3d 8b d5 81 3c
       -0.030154448 0.038377732 0.06497129 0.015848896
000010 e4 a2 fb 3d a9 4d 51 3d a6 45 c6 bb ec b8 c3 3d
       0.12286928 0.051099453 -0.006050783 0.095567554
000020 33 be 3c bd 35 42 56 3d 8c 4f 3d 3c e5 0d 07 3d
       -0.046079826 0.052309234 0.01155461 0.032972235
000030 0c 68 25 bd f2 8d 32 bd 11 0e 1e 3c 82 46 88 3d
       -0.04038243 -0.0435924 0.009646908 0.06654073
000040 c0 09 96 3c 01 05 cc bc 02 46 86 bd bf af 7e bc
       0.018315196 -0.02490473 -0.06556322 -0.015544831
000050 49 dd dd bb 35 eb ba 3d 5f 83 f2 3d 89 be a7 3c
       -0.006770764 0.091268934 0.11841463 0.020476596
000060 43 bd 58 3d 8e 78 89 3c 1a 6d a7 3c 68 a3 be 3d
       0.05291487 0.016781118 0.020437766 0.09308511
000070 59 ce 0c bd 40 22 09 bd 02 a9 28 bd 9b 80 73 3d
       -0.034376476 -0.03347993 -0.041176803 0.05944882
000080 4f 71 f3 bc 64 27 73 3d a5 bd 8c 3d d8 2d 80 3d
       -0.029717116 0.059363738 0.06872109 0.06258744
000090 56 12 26 3d 83 c6 e0 3d 98 99 6d 3d 0c 9e ef bc
       0.04054483 0.10975363 0.058007807 -0.029250167
0000a0 4a 5d 6d bd cd 93 fd 3d 3c 5c 45 3d ee 12 c9 3d
       -0.057950296 0.123817064 0.048183665 0.09818064
0000b0 46 02 04 3e 8d 12 96 3d d3 4d 40 bb 9b be 20 3c
       0.12891492 0.07327757 -0.0029343262 0.009811069
0000c0 50 5a cf 3d 4c 4a 3c bd d8 fd c1 3d 83 61 44 3d
       0.101246476 -0.045969293 0.09472245 0.047944557
0000d0 69 aa 6f bd 77 b5 33 3d 5d 1a d6 bc 24 f8 32 3c
       -0.058512125 0.04387423 -0.026135618 0.010923419
0000e0 0b d5 10 3e 11 78 83 3c b6 92 00 bd 18 d0 19 3d
       0.1414377 0.016048463 -0.031389914 0.03755197
0000f0 11 44 dc 3d bb 35 0e bd 20 56 4e 3d 45 bd 77 3d
       0.1075517 -0.03471921 0.050375104 0.060483236
000100 fa 45 d4 bc d7 67 d2 3b 83 2c 96 bc 16 ee ee 3d
       -0.025912274 0.00642107 -0.018331772 0.11666505
000110 64 15 e4 3d 5c 2f 48 bd 22 95 d9 3d 3f 5e 51 3d
       0.111368924 -0.04887329 0.10624148 0.05111527
000120 83 92 ae bc 75 df 24 3d 51 52 91 bd 8f e2 88 3b
       -0.021310097 0.040252168 -0.07095779 0.0041773985
000130 c9 c8 bc bc 3e ae cd 3d dc f9 01 3d 41 94 06 3e
       -0.02304496 0.10043 0.031732425 0.13142492
000140 fe b5 f1 3a d0 56 5d bd 6b b2 70 3d ef 79 48 bd
       0.0018441079 -0.05403787 0.058763903 -0.04894441
000150 58 30 15 3c 76 08 c5 bc 1f 61 d6 3c 04 4a 04 bd
       0.009105764 -0.024051886 0.026169358 -0.03229715
000160 b7 5d 28 3c 67 77 ba 3c 78 53 57 bd 85 78 bd 3d
       0.01027625 0.022762014 -0.052569836 0.09251503
000170 17 b8 d1 3d f6 4c d0 3d 2a 09 d7 3d 93 28 11 3b
       0.102401905 0.10170929 0.10499795 0.0022149428
000180 ab 04 09 bd 42 04 3c bc
       -0.033451717 -0.0114756245
